…
python 3.6.3 |Anaconda, Inc.| (default, Nov  3 2017, 19:19:16) 
[GCC 7.2.0]
tensorflow version 1.4.1
train and validation set size are:  311 56
Building a PSPNet based on ResNet 50 expecting inputs of shape (224, 224) predicting 12 classes
PSP module will interpolate to a final feature map size of (28, 28)
____________________________________________________________________________________________________
Layer (type)                     Output Shape          Param #     Connected to                     
====================================================================================================
input_1 (InputLayer)             (None, 224, 224, 3)   0                                            
____________________________________________________________________________________________________
conv1_1_3x3_s2 (Conv2D)          (None, 112, 112, 64)  1728        input_1[0][0]                    
____________________________________________________________________________________________________
conv1_1_3x3_s2_bn (BatchNormaliz (None, 112, 112, 64)  256         conv1_1_3x3_s2[0][0]             
____________________________________________________________________________________________________
activation_1 (Activation)        (None, 112, 112, 64)  0           conv1_1_3x3_s2_bn[0][0]          
____________________________________________________________________________________________________
conv1_2_3x3 (Conv2D)             (None, 112, 112, 64)  36864       activation_1[0][0]               
____________________________________________________________________________________________________
conv1_2_3x3_bn (BatchNormalizati (None, 112, 112, 64)  256         conv1_2_3x3[0][0]                
____________________________________________________________________________________________________
activation_2 (Activation)        (None, 112, 112, 64)  0           conv1_2_3x3_bn[0][0]             
____________________________________________________________________________________________________
conv1_3_3x3 (Conv2D)             (None, 112, 112, 128) 73728       activation_2[0][0]               
____________________________________________________________________________________________________
conv1_3_3x3_bn (BatchNormalizati (None, 112, 112, 128) 512         conv1_3_3x3[0][0]                
____________________________________________________________________________________________________
activation_3 (Activation)        (None, 112, 112, 128) 0           conv1_3_3x3_bn[0][0]             
____________________________________________________________________________________________________
max_pooling2d_1 (MaxPooling2D)   (None, 56, 56, 128)   0           activation_3[0][0]               
____________________________________________________________________________________________________
activation_4 (Activation)        (None, 56, 56, 128)   0           max_pooling2d_1[0][0]            
____________________________________________________________________________________________________
conv2_1_1x1_reduce (Conv2D)      (None, 56, 56, 64)    8192        activation_4[0][0]               
____________________________________________________________________________________________________
conv2_1_1x1_reduce_bn (BatchNorm (None, 56, 56, 64)    256         conv2_1_1x1_reduce[0][0]         
____________________________________________________________________________________________________
activation_5 (Activation)        (None, 56, 56, 64)    0           conv2_1_1x1_reduce_bn[0][0]      
____________________________________________________________________________________________________
zero_padding2d_1 (ZeroPadding2D) (None, 58, 58, 64)    0           activation_5[0][0]               
____________________________________________________________________________________________________
conv2_1_3x3 (Conv2D)             (None, 56, 56, 64)    36864       zero_padding2d_1[0][0]           
____________________________________________________________________________________________________
conv2_1_3x3_bn (BatchNormalizati (None, 56, 56, 64)    256         conv2_1_3x3[0][0]                
____________________________________________________________________________________________________
activation_6 (Activation)        (None, 56, 56, 64)    0           conv2_1_3x3_bn[0][0]             
____________________________________________________________________________________________________
conv2_1_1x1_increase (Conv2D)    (None, 56, 56, 256)   16384       activation_6[0][0]               
____________________________________________________________________________________________________
conv2_1_1x1_proj (Conv2D)        (None, 56, 56, 256)   32768       activation_4[0][0]               
____________________________________________________________________________________________________
conv2_1_1x1_increase_bn (BatchNo (None, 56, 56, 256)   1024        conv2_1_1x1_increase[0][0]       
____________________________________________________________________________________________________
conv2_1_1x1_proj_bn (BatchNormal (None, 56, 56, 256)   1024        conv2_1_1x1_proj[0][0]           
____________________________________________________________________________________________________
add_1 (Add)                      (None, 56, 56, 256)   0           conv2_1_1x1_increase_bn[0][0]    
                                                                   conv2_1_1x1_proj_bn[0][0]        
____________________________________________________________________________________________________
activation_7 (Activation)        (None, 56, 56, 256)   0           add_1[0][0]                      
____________________________________________________________________________________________________
conv2_2_1x1_reduce (Conv2D)      (None, 56, 56, 64)    16384       activation_7[0][0]               
____________________________________________________________________________________________________
conv2_2_1x1_reduce_bn (BatchNorm (None, 56, 56, 64)    256         conv2_2_1x1_reduce[0][0]         
____________________________________________________________________________________________________
activation_8 (Activation)        (None, 56, 56, 64)    0           conv2_2_1x1_reduce_bn[0][0]      
____________________________________________________________________________________________________
zero_padding2d_2 (ZeroPadding2D) (None, 58, 58, 64)    0           activation_8[0][0]               
____________________________________________________________________________________________________
conv2_2_3x3 (Conv2D)             (None, 56, 56, 64)    36864       zero_padding2d_2[0][0]           
____________________________________________________________________________________________________
conv2_2_3x3_bn (BatchNormalizati (None, 56, 56, 64)    256         conv2_2_3x3[0][0]                
____________________________________________________________________________________________________
activation_9 (Activation)        (None, 56, 56, 64)    0           conv2_2_3x3_bn[0][0]             
____________________________________________________________________________________________________
conv2_2_1x1_increase (Conv2D)    (None, 56, 56, 256)   16384       activation_9[0][0]               
____________________________________________________________________________________________________
conv2_2_1x1_increase_bn (BatchNo (None, 56, 56, 256)   1024        conv2_2_1x1_increase[0][0]       
____________________________________________________________________________________________________
add_2 (Add)                      (None, 56, 56, 256)   0           conv2_2_1x1_increase_bn[0][0]    
                                                                   activation_7[0][0]               
____________________________________________________________________________________________________
activation_10 (Activation)       (None, 56, 56, 256)   0           add_2[0][0]                      
____________________________________________________________________________________________________
conv2_3_1x1_reduce (Conv2D)      (None, 56, 56, 64)    16384       activation_10[0][0]              
____________________________________________________________________________________________________
conv2_3_1x1_reduce_bn (BatchNorm (None, 56, 56, 64)    256         conv2_3_1x1_reduce[0][0]         
____________________________________________________________________________________________________
activation_11 (Activation)       (None, 56, 56, 64)    0           conv2_3_1x1_reduce_bn[0][0]      
____________________________________________________________________________________________________
zero_padding2d_3 (ZeroPadding2D) (None, 58, 58, 64)    0           activation_11[0][0]              
____________________________________________________________________________________________________
conv2_3_3x3 (Conv2D)             (None, 56, 56, 64)    36864       zero_padding2d_3[0][0]           
____________________________________________________________________________________________________
conv2_3_3x3_bn (BatchNormalizati (None, 56, 56, 64)    256         conv2_3_3x3[0][0]                
____________________________________________________________________________________________________
activation_12 (Activation)       (None, 56, 56, 64)    0           conv2_3_3x3_bn[0][0]             
____________________________________________________________________________________________________
conv2_3_1x1_increase (Conv2D)    (None, 56, 56, 256)   16384       activation_12[0][0]              
____________________________________________________________________________________________________
conv2_3_1x1_increase_bn (BatchNo (None, 56, 56, 256)   1024        conv2_3_1x1_increase[0][0]       
____________________________________________________________________________________________________
add_3 (Add)                      (None, 56, 56, 256)   0           conv2_3_1x1_increase_bn[0][0]    
                                                                   activation_10[0][0]              
____________________________________________________________________________________________________
activation_13 (Activation)       (None, 56, 56, 256)   0           add_3[0][0]                      
____________________________________________________________________________________________________
conv3_1_1x1_reduce (Conv2D)      (None, 28, 28, 128)   32768       activation_13[0][0]              
____________________________________________________________________________________________________
conv3_1_1x1_reduce_bn (BatchNorm (None, 28, 28, 128)   512         conv3_1_1x1_reduce[0][0]         
____________________________________________________________________________________________________
activation_14 (Activation)       (None, 28, 28, 128)   0           conv3_1_1x1_reduce_bn[0][0]      
____________________________________________________________________________________________________
zero_padding2d_4 (ZeroPadding2D) (None, 30, 30, 128)   0           activation_14[0][0]              
____________________________________________________________________________________________________
conv3_1_3x3 (Conv2D)             (None, 28, 28, 128)   147456      zero_padding2d_4[0][0]           
____________________________________________________________________________________________________
conv3_1_3x3_bn (BatchNormalizati (None, 28, 28, 128)   512         conv3_1_3x3[0][0]                
____________________________________________________________________________________________________
activation_15 (Activation)       (None, 28, 28, 128)   0           conv3_1_3x3_bn[0][0]             
____________________________________________________________________________________________________
conv3_1_1x1_increase (Conv2D)    (None, 28, 28, 512)   65536       activation_15[0][0]              
____________________________________________________________________________________________________
conv3_1_1x1_proj (Conv2D)        (None, 28, 28, 512)   131072      activation_13[0][0]              
____________________________________________________________________________________________________
conv3_1_1x1_increase_bn (BatchNo (None, 28, 28, 512)   2048        conv3_1_1x1_increase[0][0]       
____________________________________________________________________________________________________
conv3_1_1x1_proj_bn (BatchNormal (None, 28, 28, 512)   2048        conv3_1_1x1_proj[0][0]           
____________________________________________________________________________________________________
add_4 (Add)                      (None, 28, 28, 512)   0           conv3_1_1x1_increase_bn[0][0]    
                                                                   conv3_1_1x1_proj_bn[0][0]        
____________________________________________________________________________________________________
activation_16 (Activation)       (None, 28, 28, 512)   0           add_4[0][0]                      
____________________________________________________________________________________________________
conv3_2_1x1_reduce (Conv2D)      (None, 28, 28, 128)   65536       activation_16[0][0]              
____________________________________________________________________________________________________
conv3_2_1x1_reduce_bn (BatchNorm (None, 28, 28, 128)   512         conv3_2_1x1_reduce[0][0]         
____________________________________________________________________________________________________
activation_17 (Activation)       (None, 28, 28, 128)   0           conv3_2_1x1_reduce_bn[0][0]      
____________________________________________________________________________________________________
zero_padding2d_5 (ZeroPadding2D) (None, 30, 30, 128)   0           activation_17[0][0]              
____________________________________________________________________________________________________
conv3_2_3x3 (Conv2D)             (None, 28, 28, 128)   147456      zero_padding2d_5[0][0]           
____________________________________________________________________________________________________
conv3_2_3x3_bn (BatchNormalizati (None, 28, 28, 128)   512         conv3_2_3x3[0][0]                
____________________________________________________________________________________________________
activation_18 (Activation)       (None, 28, 28, 128)   0           conv3_2_3x3_bn[0][0]             
____________________________________________________________________________________________________
conv3_2_1x1_increase (Conv2D)    (None, 28, 28, 512)   65536       activation_18[0][0]              
____________________________________________________________________________________________________
conv3_2_1x1_increase_bn (BatchNo (None, 28, 28, 512)   2048        conv3_2_1x1_increase[0][0]       
____________________________________________________________________________________________________
add_5 (Add)                      (None, 28, 28, 512)   0           conv3_2_1x1_increase_bn[0][0]    
                                                                   activation_16[0][0]              
____________________________________________________________________________________________________
activation_19 (Activation)       (None, 28, 28, 512)   0           add_5[0][0]                      
____________________________________________________________________________________________________
conv3_3_1x1_reduce (Conv2D)      (None, 28, 28, 128)   65536       activation_19[0][0]              
____________________________________________________________________________________________________
conv3_3_1x1_reduce_bn (BatchNorm (None, 28, 28, 128)   512         conv3_3_1x1_reduce[0][0]         
____________________________________________________________________________________________________
activation_20 (Activation)       (None, 28, 28, 128)   0           conv3_3_1x1_reduce_bn[0][0]      
____________________________________________________________________________________________________
zero_padding2d_6 (ZeroPadding2D) (None, 30, 30, 128)   0           activation_20[0][0]              
____________________________________________________________________________________________________
conv3_3_3x3 (Conv2D)             (None, 28, 28, 128)   147456      zero_padding2d_6[0][0]           
____________________________________________________________________________________________________
conv3_3_3x3_bn (BatchNormalizati (None, 28, 28, 128)   512         conv3_3_3x3[0][0]                
____________________________________________________________________________________________________
activation_21 (Activation)       (None, 28, 28, 128)   0           conv3_3_3x3_bn[0][0]             
____________________________________________________________________________________________________
conv3_3_1x1_increase (Conv2D)    (None, 28, 28, 512)   65536       activation_21[0][0]              
____________________________________________________________________________________________________
conv3_3_1x1_increase_bn (BatchNo (None, 28, 28, 512)   2048        conv3_3_1x1_increase[0][0]       
____________________________________________________________________________________________________
add_6 (Add)                      (None, 28, 28, 512)   0           conv3_3_1x1_increase_bn[0][0]    
                                                                   activation_19[0][0]              
____________________________________________________________________________________________________
activation_22 (Activation)       (None, 28, 28, 512)   0           add_6[0][0]                      
____________________________________________________________________________________________________
conv3_4_1x1_reduce (Conv2D)      (None, 28, 28, 128)   65536       activation_22[0][0]              
____________________________________________________________________________________________________
conv3_4_1x1_reduce_bn (BatchNorm (None, 28, 28, 128)   512         conv3_4_1x1_reduce[0][0]         
____________________________________________________________________________________________________
activation_23 (Activation)       (None, 28, 28, 128)   0           conv3_4_1x1_reduce_bn[0][0]      
____________________________________________________________________________________________________
zero_padding2d_7 (ZeroPadding2D) (None, 30, 30, 128)   0           activation_23[0][0]              
____________________________________________________________________________________________________
conv3_4_3x3 (Conv2D)             (None, 28, 28, 128)   147456      zero_padding2d_7[0][0]           
____________________________________________________________________________________________________
conv3_4_3x3_bn (BatchNormalizati (None, 28, 28, 128)   512         conv3_4_3x3[0][0]                
____________________________________________________________________________________________________
activation_24 (Activation)       (None, 28, 28, 128)   0           conv3_4_3x3_bn[0][0]             
____________________________________________________________________________________________________
conv3_4_1x1_increase (Conv2D)    (None, 28, 28, 512)   65536       activation_24[0][0]              
____________________________________________________________________________________________________
conv3_4_1x1_increase_bn (BatchNo (None, 28, 28, 512)   2048        conv3_4_1x1_increase[0][0]       
____________________________________________________________________________________________________
add_7 (Add)                      (None, 28, 28, 512)   0           conv3_4_1x1_increase_bn[0][0]    
                                                                   activation_22[0][0]              
____________________________________________________________________________________________________
activation_25 (Activation)       (None, 28, 28, 512)   0           add_7[0][0]                      
____________________________________________________________________________________________________
conv4_1_1x1_reduce (Conv2D)      (None, 28, 28, 256)   131072      activation_25[0][0]              
____________________________________________________________________________________________________
conv4_1_1x1_reduce_bn (BatchNorm (None, 28, 28, 256)   1024        conv4_1_1x1_reduce[0][0]         
____________________________________________________________________________________________________
activation_26 (Activation)       (None, 28, 28, 256)   0           conv4_1_1x1_reduce_bn[0][0]      
____________________________________________________________________________________________________
zero_padding2d_8 (ZeroPadding2D) (None, 32, 32, 256)   0           activation_26[0][0]              
____________________________________________________________________________________________________
conv4_1_3x3 (Conv2D)             (None, 28, 28, 256)   589824      zero_padding2d_8[0][0]           
____________________________________________________________________________________________________
conv4_1_3x3_bn (BatchNormalizati (None, 28, 28, 256)   1024        conv4_1_3x3[0][0]                
____________________________________________________________________________________________________
activation_27 (Activation)       (None, 28, 28, 256)   0           conv4_1_3x3_bn[0][0]             
____________________________________________________________________________________________________
conv4_1_1x1_increase (Conv2D)    (None, 28, 28, 1024)  262144      activation_27[0][0]              
____________________________________________________________________________________________________
conv4_1_1x1_proj (Conv2D)        (None, 28, 28, 1024)  524288      activation_25[0][0]              
____________________________________________________________________________________________________
conv4_1_1x1_increase_bn (BatchNo (None, 28, 28, 1024)  4096        conv4_1_1x1_increase[0][0]       
____________________________________________________________________________________________________
conv4_1_1x1_proj_bn (BatchNormal (None, 28, 28, 1024)  4096        conv4_1_1x1_proj[0][0]           
____________________________________________________________________________________________________
add_8 (Add)                      (None, 28, 28, 1024)  0           conv4_1_1x1_increase_bn[0][0]    
                                                                   conv4_1_1x1_proj_bn[0][0]        
____________________________________________________________________________________________________
activation_28 (Activation)       (None, 28, 28, 1024)  0           add_8[0][0]                      
____________________________________________________________________________________________________
conv4_2_1x1_reduce (Conv2D)      (None, 28, 28, 256)   262144      activation_28[0][0]              
____________________________________________________________________________________________________
conv4_2_1x1_reduce_bn (BatchNorm (None, 28, 28, 256)   1024        conv4_2_1x1_reduce[0][0]         
____________________________________________________________________________________________________
activation_29 (Activation)       (None, 28, 28, 256)   0           conv4_2_1x1_reduce_bn[0][0]      
____________________________________________________________________________________________________
zero_padding2d_9 (ZeroPadding2D) (None, 32, 32, 256)   0           activation_29[0][0]              
____________________________________________________________________________________________________
conv4_2_3x3 (Conv2D)             (None, 28, 28, 256)   589824      zero_padding2d_9[0][0]           
____________________________________________________________________________________________________
conv4_2_3x3_bn (BatchNormalizati (None, 28, 28, 256)   1024        conv4_2_3x3[0][0]                
____________________________________________________________________________________________________
activation_30 (Activation)       (None, 28, 28, 256)   0           conv4_2_3x3_bn[0][0]             
____________________________________________________________________________________________________
conv4_2_1x1_increase (Conv2D)    (None, 28, 28, 1024)  262144      activation_30[0][0]              
____________________________________________________________________________________________________
conv4_2_1x1_increase_bn (BatchNo (None, 28, 28, 1024)  4096        conv4_2_1x1_increase[0][0]       
____________________________________________________________________________________________________
add_9 (Add)                      (None, 28, 28, 1024)  0           conv4_2_1x1_increase_bn[0][0]    
                                                                   activation_28[0][0]              
____________________________________________________________________________________________________
activation_31 (Activation)       (None, 28, 28, 1024)  0           add_9[0][0]                      
____________________________________________________________________________________________________
conv4_3_1x1_reduce (Conv2D)      (None, 28, 28, 256)   262144      activation_31[0][0]              
____________________________________________________________________________________________________
conv4_3_1x1_reduce_bn (BatchNorm (None, 28, 28, 256)   1024        conv4_3_1x1_reduce[0][0]         
____________________________________________________________________________________________________
activation_32 (Activation)       (None, 28, 28, 256)   0           conv4_3_1x1_reduce_bn[0][0]      
____________________________________________________________________________________________________
zero_padding2d_10 (ZeroPadding2D (None, 32, 32, 256)   0           activation_32[0][0]              
____________________________________________________________________________________________________
conv4_3_3x3 (Conv2D)             (None, 28, 28, 256)   589824      zero_padding2d_10[0][0]          
____________________________________________________________________________________________________
conv4_3_3x3_bn (BatchNormalizati (None, 28, 28, 256)   1024        conv4_3_3x3[0][0]                
____________________________________________________________________________________________________
activation_33 (Activation)       (None, 28, 28, 256)   0           conv4_3_3x3_bn[0][0]             
____________________________________________________________________________________________________
conv4_3_1x1_increase (Conv2D)    (None, 28, 28, 1024)  262144      activation_33[0][0]              
____________________________________________________________________________________________________
conv4_3_1x1_increase_bn (BatchNo (None, 28, 28, 1024)  4096        conv4_3_1x1_increase[0][0]       
____________________________________________________________________________________________________
add_10 (Add)                     (None, 28, 28, 1024)  0           conv4_3_1x1_increase_bn[0][0]    
                                                                   activation_31[0][0]              
____________________________________________________________________________________________________
activation_34 (Activation)       (None, 28, 28, 1024)  0           add_10[0][0]                     
____________________________________________________________________________________________________
conv4_4_1x1_reduce (Conv2D)      (None, 28, 28, 256)   262144      activation_34[0][0]              
____________________________________________________________________________________________________
conv4_4_1x1_reduce_bn (BatchNorm (None, 28, 28, 256)   1024        conv4_4_1x1_reduce[0][0]         
____________________________________________________________________________________________________
activation_35 (Activation)       (None, 28, 28, 256)   0           conv4_4_1x1_reduce_bn[0][0]      
____________________________________________________________________________________________________
zero_padding2d_11 (ZeroPadding2D (None, 32, 32, 256)   0           activation_35[0][0]              
____________________________________________________________________________________________________
conv4_4_3x3 (Conv2D)             (None, 28, 28, 256)   589824      zero_padding2d_11[0][0]          
____________________________________________________________________________________________________
conv4_4_3x3_bn (BatchNormalizati (None, 28, 28, 256)   1024        conv4_4_3x3[0][0]                
____________________________________________________________________________________________________
activation_36 (Activation)       (None, 28, 28, 256)   0           conv4_4_3x3_bn[0][0]             
____________________________________________________________________________________________________
conv4_4_1x1_increase (Conv2D)    (None, 28, 28, 1024)  262144      activation_36[0][0]              
____________________________________________________________________________________________________
conv4_4_1x1_increase_bn (BatchNo (None, 28, 28, 1024)  4096        conv4_4_1x1_increase[0][0]       
____________________________________________________________________________________________________
add_11 (Add)                     (None, 28, 28, 1024)  0           conv4_4_1x1_increase_bn[0][0]    
                                                                   activation_34[0][0]              
____________________________________________________________________________________________________
activation_37 (Activation)       (None, 28, 28, 1024)  0           add_11[0][0]                     
____________________________________________________________________________________________________
conv4_5_1x1_reduce (Conv2D)      (None, 28, 28, 256)   262144      activation_37[0][0]              
____________________________________________________________________________________________________
conv4_5_1x1_reduce_bn (BatchNorm (None, 28, 28, 256)   1024        conv4_5_1x1_reduce[0][0]         
____________________________________________________________________________________________________
activation_38 (Activation)       (None, 28, 28, 256)   0           conv4_5_1x1_reduce_bn[0][0]      
____________________________________________________________________________________________________
zero_padding2d_12 (ZeroPadding2D (None, 32, 32, 256)   0           activation_38[0][0]              
____________________________________________________________________________________________________
conv4_5_3x3 (Conv2D)             (None, 28, 28, 256)   589824      zero_padding2d_12[0][0]          
____________________________________________________________________________________________________
conv4_5_3x3_bn (BatchNormalizati (None, 28, 28, 256)   1024        conv4_5_3x3[0][0]                
____________________________________________________________________________________________________
activation_39 (Activation)       (None, 28, 28, 256)   0           conv4_5_3x3_bn[0][0]             
____________________________________________________________________________________________________
conv4_5_1x1_increase (Conv2D)    (None, 28, 28, 1024)  262144      activation_39[0][0]              
____________________________________________________________________________________________________
conv4_5_1x1_increase_bn (BatchNo (None, 28, 28, 1024)  4096        conv4_5_1x1_increase[0][0]       
____________________________________________________________________________________________________
add_12 (Add)                     (None, 28, 28, 1024)  0           conv4_5_1x1_increase_bn[0][0]    
                                                                   activation_37[0][0]              
____________________________________________________________________________________________________
activation_40 (Activation)       (None, 28, 28, 1024)  0           add_12[0][0]                     
____________________________________________________________________________________________________
conv4_6_1x1_reduce (Conv2D)      (None, 28, 28, 256)   262144      activation_40[0][0]              
____________________________________________________________________________________________________
conv4_6_1x1_reduce_bn (BatchNorm (None, 28, 28, 256)   1024        conv4_6_1x1_reduce[0][0]         
____________________________________________________________________________________________________
activation_41 (Activation)       (None, 28, 28, 256)   0           conv4_6_1x1_reduce_bn[0][0]      
____________________________________________________________________________________________________
zero_padding2d_13 (ZeroPadding2D (None, 32, 32, 256)   0           activation_41[0][0]              
____________________________________________________________________________________________________
conv4_6_3x3 (Conv2D)             (None, 28, 28, 256)   589824      zero_padding2d_13[0][0]          
____________________________________________________________________________________________________
conv4_6_3x3_bn (BatchNormalizati (None, 28, 28, 256)   1024        conv4_6_3x3[0][0]                
____________________________________________________________________________________________________
activation_42 (Activation)       (None, 28, 28, 256)   0           conv4_6_3x3_bn[0][0]             
____________________________________________________________________________________________________
conv4_6_1x1_increase (Conv2D)    (None, 28, 28, 1024)  262144      activation_42[0][0]              
____________________________________________________________________________________________________
conv4_6_1x1_increase_bn (BatchNo (None, 28, 28, 1024)  4096        conv4_6_1x1_increase[0][0]       
____________________________________________________________________________________________________
add_13 (Add)                     (None, 28, 28, 1024)  0           conv4_6_1x1_increase_bn[0][0]    
                                                                   activation_40[0][0]              
____________________________________________________________________________________________________
activation_43 (Activation)       (None, 28, 28, 1024)  0           add_13[0][0]                     
____________________________________________________________________________________________________
conv5_1_1x1_reduce (Conv2D)      (None, 28, 28, 512)   524288      activation_43[0][0]              
____________________________________________________________________________________________________
conv5_1_1x1_reduce_bn (BatchNorm (None, 28, 28, 512)   2048        conv5_1_1x1_reduce[0][0]         
____________________________________________________________________________________________________
activation_44 (Activation)       (None, 28, 28, 512)   0           conv5_1_1x1_reduce_bn[0][0]      
____________________________________________________________________________________________________
zero_padding2d_14 (ZeroPadding2D (None, 36, 36, 512)   0           activation_44[0][0]              
____________________________________________________________________________________________________
conv5_1_3x3 (Conv2D)             (None, 28, 28, 512)   2359296     zero_padding2d_14[0][0]          
____________________________________________________________________________________________________
conv5_1_3x3_bn (BatchNormalizati (None, 28, 28, 512)   2048        conv5_1_3x3[0][0]                
____________________________________________________________________________________________________
activation_45 (Activation)       (None, 28, 28, 512)   0           conv5_1_3x3_bn[0][0]             
____________________________________________________________________________________________________
conv5_1_1x1_increase (Conv2D)    (None, 28, 28, 2048)  1048576     activation_45[0][0]              
____________________________________________________________________________________________________
conv5_1_1x1_proj (Conv2D)        (None, 28, 28, 2048)  2097152     activation_43[0][0]              
____________________________________________________________________________________________________
conv5_1_1x1_increase_bn (BatchNo (None, 28, 28, 2048)  8192        conv5_1_1x1_increase[0][0]       
____________________________________________________________________________________________________
conv5_1_1x1_proj_bn (BatchNormal (None, 28, 28, 2048)  8192        conv5_1_1x1_proj[0][0]           
____________________________________________________________________________________________________
add_14 (Add)                     (None, 28, 28, 2048)  0           conv5_1_1x1_increase_bn[0][0]    
                                                                   conv5_1_1x1_proj_bn[0][0]        
____________________________________________________________________________________________________
activation_46 (Activation)       (None, 28, 28, 2048)  0           add_14[0][0]                     
____________________________________________________________________________________________________
conv5_2_1x1_reduce (Conv2D)      (None, 28, 28, 512)   1048576     activation_46[0][0]              
____________________________________________________________________________________________________
conv5_2_1x1_reduce_bn (BatchNorm (None, 28, 28, 512)   2048        conv5_2_1x1_reduce[0][0]         
____________________________________________________________________________________________________
activation_47 (Activation)       (None, 28, 28, 512)   0           conv5_2_1x1_reduce_bn[0][0]      
____________________________________________________________________________________________________
zero_padding2d_15 (ZeroPadding2D (None, 36, 36, 512)   0           activation_47[0][0]              
____________________________________________________________________________________________________
conv5_2_3x3 (Conv2D)             (None, 28, 28, 512)   2359296     zero_padding2d_15[0][0]          
____________________________________________________________________________________________________
conv5_2_3x3_bn (BatchNormalizati (None, 28, 28, 512)   2048        conv5_2_3x3[0][0]                
____________________________________________________________________________________________________
activation_48 (Activation)       (None, 28, 28, 512)   0           conv5_2_3x3_bn[0][0]             
____________________________________________________________________________________________________
conv5_2_1x1_increase (Conv2D)    (None, 28, 28, 2048)  1048576     activation_48[0][0]              
____________________________________________________________________________________________________
conv5_2_1x1_increase_bn (BatchNo (None, 28, 28, 2048)  8192        conv5_2_1x1_increase[0][0]       
____________________________________________________________________________________________________
add_15 (Add)                     (None, 28, 28, 2048)  0           conv5_2_1x1_increase_bn[0][0]    
                                                                   activation_46[0][0]              
____________________________________________________________________________________________________
activation_49 (Activation)       (None, 28, 28, 2048)  0           add_15[0][0]                     
____________________________________________________________________________________________________
conv5_3_1x1_reduce (Conv2D)      (None, 28, 28, 512)   1048576     activation_49[0][0]              
____________________________________________________________________________________________________
conv5_3_1x1_reduce_bn (BatchNorm (None, 28, 28, 512)   2048        conv5_3_1x1_reduce[0][0]         
____________________________________________________________________________________________________
activation_50 (Activation)       (None, 28, 28, 512)   0           conv5_3_1x1_reduce_bn[0][0]      
____________________________________________________________________________________________________
zero_padding2d_16 (ZeroPadding2D (None, 36, 36, 512)   0           activation_50[0][0]              
____________________________________________________________________________________________________
conv5_3_3x3 (Conv2D)             (None, 28, 28, 512)   2359296     zero_padding2d_16[0][0]          
____________________________________________________________________________________________________
conv5_3_3x3_bn (BatchNormalizati (None, 28, 28, 512)   2048        conv5_3_3x3[0][0]                
____________________________________________________________________________________________________
activation_51 (Activation)       (None, 28, 28, 512)   0           conv5_3_3x3_bn[0][0]             
____________________________________________________________________________________________________
conv5_3_1x1_increase (Conv2D)    (None, 28, 28, 2048)  1048576     activation_51[0][0]              
____________________________________________________________________________________________________
conv5_3_1x1_increase_bn (BatchNo (None, 28, 28, 2048)  8192        conv5_3_1x1_increase[0][0]       
____________________________________________________________________________________________________
add_16 (Add)                     (None, 28, 28, 2048)  0           conv5_3_1x1_increase_bn[0][0]    
                                                                   activation_49[0][0]              
____________________________________________________________________________________________________
activation_52 (Activation)       (None, 28, 28, 2048)  0           add_16[0][0]                     
____________________________________________________________________________________________________
average_pooling2d_4 (AveragePool (None, 9, 9, 2048)    0           activation_52[0][0]              
____________________________________________________________________________________________________
average_pooling2d_3 (AveragePool (None, 4, 4, 2048)    0           activation_52[0][0]              
____________________________________________________________________________________________________
average_pooling2d_2 (AveragePool (None, 2, 2, 2048)    0           activation_52[0][0]              
____________________________________________________________________________________________________
average_pooling2d_1 (AveragePool (None, 1, 1, 2048)    0           activation_52[0][0]              
____________________________________________________________________________________________________
conv5_3_pool6_conv (Conv2D)      (None, 9, 9, 512)     1048576     average_pooling2d_4[0][0]        
____________________________________________________________________________________________________
conv5_3_pool3_conv (Conv2D)      (None, 4, 4, 512)     1048576     average_pooling2d_3[0][0]        
____________________________________________________________________________________________________
conv5_3_pool2_conv (Conv2D)      (None, 2, 2, 512)     1048576     average_pooling2d_2[0][0]        
____________________________________________________________________________________________________
conv5_3_pool1_conv (Conv2D)      (None, 1, 1, 512)     1048576     average_pooling2d_1[0][0]        
____________________________________________________________________________________________________
conv5_3_pool6_conv_bn (BatchNorm (None, 9, 9, 512)     2048        conv5_3_pool6_conv[0][0]         
____________________________________________________________________________________________________
conv5_3_pool3_conv_bn (BatchNorm (None, 4, 4, 512)     2048        conv5_3_pool3_conv[0][0]         
____________________________________________________________________________________________________
conv5_3_pool2_conv_bn (BatchNorm (None, 2, 2, 512)     2048        conv5_3_pool2_conv[0][0]         
____________________________________________________________________________________________________
conv5_3_pool1_conv_bn (BatchNorm (None, 1, 1, 512)     2048        conv5_3_pool1_conv[0][0]         
____________________________________________________________________________________________________
activation_56 (Activation)       (None, 9, 9, 512)     0           conv5_3_pool6_conv_bn[0][0]      
____________________________________________________________________________________________________
activation_55 (Activation)       (None, 4, 4, 512)     0           conv5_3_pool3_conv_bn[0][0]      
____________________________________________________________________________________________________
activation_54 (Activation)       (None, 2, 2, 512)     0           conv5_3_pool2_conv_bn[0][0]      
____________________________________________________________________________________________________
activation_53 (Activation)       (None, 1, 1, 512)     0           conv5_3_pool1_conv_bn[0][0]      
____________________________________________________________________________________________________
interp_4 (Interp)                (None, 28, 28, 512)   0           activation_56[0][0]              
____________________________________________________________________________________________________
interp_3 (Interp)                (None, 28, 28, 512)   0           activation_55[0][0]              
____________________________________________________________________________________________________
interp_2 (Interp)                (None, 28, 28, 512)   0           activation_54[0][0]              
____________________________________________________________________________________________________
interp_1 (Interp)                (None, 28, 28, 512)   0           activation_53[0][0]              
____________________________________________________________________________________________________
concatenate_1 (Concatenate)      (None, 28, 28, 4096)  0           activation_52[0][0]              
                                                                   interp_4[0][0]                   
                                                                   interp_3[0][0]                   
                                                                   interp_2[0][0]                   
                                                                   interp_1[0][0]                   
____________________________________________________________________________________________________
conv5_4 (Conv2D)                 (None, 28, 28, 512)   18874368    concatenate_1[0][0]              
____________________________________________________________________________________________________
conv5_4_bn (BatchNormalization)  (None, 28, 28, 512)   2048        conv5_4[0][0]                    
____________________________________________________________________________________________________
activation_57 (Activation)       (None, 28, 28, 512)   0           conv5_4_bn[0][0]                 
____________________________________________________________________________________________________
dropout_1 (Dropout)              (None, 28, 28, 512)   0           activation_57[0][0]              
____________________________________________________________________________________________________
conv6 (Conv2D)                   (None, 28, 28, 12)    6156        dropout_1[0][0]                  
____________________________________________________________________________________________________
interp_5 (Interp)                (None, 224, 224, 12)  0           conv6[0][0]                      
____________________________________________________________________________________________________
activation_58 (Activation)       (None, 224, 224, 12)  0           interp_5[0][0]                   
====================================================================================================
Total params: 46,770,380
Trainable params: 46,711,756
Non-trainable params: 58,624
____________________________________________________________________________________________________
Epoch 1/300
Epoch 00000: val_loss improved from inf to 11.09224, saving model to ./data/PSPnet-best_weights.hdf5
…
