…
2019-12-16 20:37:52.739997: I tensorflow/core/common_runtime/gpu/gpu_device.cc:1120] Creating TensorFlow device (/device:GPU:0) -> (device: 1, name: Graphics Device, pci bus id: 0000:81:00.0, compute capability: 6.1)
python 3.6.3 |Anaconda, Inc.| (default, Nov  3 2017, 19:19:16) 
[GCC 7.2.0]
tensorflow version 1.4.1
train and validation set size are:  311 56
____________________________________________________________________________________________________
Layer (type)                     Output Shape          Param #     Connected to                     
====================================================================================================
input_1 (InputLayer)             (None, 224, 224, 3)   0                                            
____________________________________________________________________________________________________
conv2d_1 (Conv2D)                (None, 224, 224, 64)  1792        input_1[0][0]                    
____________________________________________________________________________________________________
leaky_re_lu_1 (LeakyReLU)        (None, 224, 224, 64)  0           conv2d_1[0][0]                   
____________________________________________________________________________________________________
conv2d_2 (Conv2D)                (None, 224, 224, 64)  36928       leaky_re_lu_1[0][0]              
____________________________________________________________________________________________________
leaky_re_lu_2 (LeakyReLU)        (None, 224, 224, 64)  0           conv2d_2[0][0]                   
____________________________________________________________________________________________________
max_pooling2d_1 (MaxPooling2D)   (None, 112, 112, 64)  0           leaky_re_lu_2[0][0]              
____________________________________________________________________________________________________
conv2d_3 (Conv2D)                (None, 112, 112, 128) 73856       max_pooling2d_1[0][0]            
____________________________________________________________________________________________________
leaky_re_lu_3 (LeakyReLU)        (None, 112, 112, 128) 0           conv2d_3[0][0]                   
____________________________________________________________________________________________________
conv2d_4 (Conv2D)                (None, 112, 112, 128) 147584      leaky_re_lu_3[0][0]              
____________________________________________________________________________________________________
leaky_re_lu_4 (LeakyReLU)        (None, 112, 112, 128) 0           conv2d_4[0][0]                   
____________________________________________________________________________________________________
max_pooling2d_2 (MaxPooling2D)   (None, 56, 56, 128)   0           leaky_re_lu_4[0][0]              
____________________________________________________________________________________________________
conv2d_5 (Conv2D)                (None, 56, 56, 256)   295168      max_pooling2d_2[0][0]            
____________________________________________________________________________________________________
leaky_re_lu_5 (LeakyReLU)        (None, 56, 56, 256)   0           conv2d_5[0][0]                   
____________________________________________________________________________________________________
conv2d_6 (Conv2D)                (None, 56, 56, 256)   590080      leaky_re_lu_5[0][0]              
____________________________________________________________________________________________________
leaky_re_lu_6 (LeakyReLU)        (None, 56, 56, 256)   0           conv2d_6[0][0]                   
____________________________________________________________________________________________________
max_pooling2d_3 (MaxPooling2D)   (None, 28, 28, 256)   0           leaky_re_lu_6[0][0]              
____________________________________________________________________________________________________
conv2d_7 (Conv2D)                (None, 28, 28, 512)   1180160     max_pooling2d_3[0][0]            
____________________________________________________________________________________________________
leaky_re_lu_7 (LeakyReLU)        (None, 28, 28, 512)   0           conv2d_7[0][0]                   
____________________________________________________________________________________________________
conv2d_8 (Conv2D)                (None, 28, 28, 512)   2359808     leaky_re_lu_7[0][0]              
____________________________________________________________________________________________________
leaky_re_lu_8 (LeakyReLU)        (None, 28, 28, 512)   0           conv2d_8[0][0]                   
____________________________________________________________________________________________________
dropout_1 (Dropout)              (None, 28, 28, 512)   0           leaky_re_lu_8[0][0]              
____________________________________________________________________________________________________
max_pooling2d_4 (MaxPooling2D)   (None, 14, 14, 512)   0           dropout_1[0][0]                  
____________________________________________________________________________________________________
conv2d_9 (Conv2D)                (None, 14, 14, 1024)  4719616     max_pooling2d_4[0][0]            
____________________________________________________________________________________________________
leaky_re_lu_9 (LeakyReLU)        (None, 14, 14, 1024)  0           conv2d_9[0][0]                   
____________________________________________________________________________________________________
conv2d_10 (Conv2D)               (None, 14, 14, 1024)  9438208     leaky_re_lu_9[0][0]              
____________________________________________________________________________________________________
leaky_re_lu_10 (LeakyReLU)       (None, 14, 14, 1024)  0           conv2d_10[0][0]                  
____________________________________________________________________________________________________
dropout_2 (Dropout)              (None, 14, 14, 1024)  0           leaky_re_lu_10[0][0]             
____________________________________________________________________________________________________
up_sampling2d_1 (UpSampling2D)   (None, 28, 28, 1024)  0           dropout_2[0][0]                  
____________________________________________________________________________________________________
conv2d_11 (Conv2D)               (None, 28, 28, 512)   2097664     up_sampling2d_1[0][0]            
____________________________________________________________________________________________________
leaky_re_lu_11 (LeakyReLU)       (None, 28, 28, 512)   0           conv2d_11[0][0]                  
____________________________________________________________________________________________________
concatenate_1 (Concatenate)      (None, 28, 28, 1024)  0           dropout_1[0][0]                  
                                                                   leaky_re_lu_11[0][0]             
____________________________________________________________________________________________________
conv2d_12 (Conv2D)               (None, 28, 28, 512)   4719104     concatenate_1[0][0]              
____________________________________________________________________________________________________
leaky_re_lu_12 (LeakyReLU)       (None, 28, 28, 512)   0           conv2d_12[0][0]                  
____________________________________________________________________________________________________
conv2d_13 (Conv2D)               (None, 28, 28, 512)   2359808     leaky_re_lu_12[0][0]             
____________________________________________________________________________________________________
leaky_re_lu_13 (LeakyReLU)       (None, 28, 28, 512)   0           conv2d_13[0][0]                  
____________________________________________________________________________________________________
up_sampling2d_2 (UpSampling2D)   (None, 56, 56, 512)   0           leaky_re_lu_13[0][0]             
____________________________________________________________________________________________________
conv2d_14 (Conv2D)               (None, 56, 56, 256)   1179904     up_sampling2d_2[0][0]            
____________________________________________________________________________________________________
leaky_re_lu_14 (LeakyReLU)       (None, 56, 56, 256)   0           conv2d_14[0][0]                  
____________________________________________________________________________________________________
concatenate_2 (Concatenate)      (None, 56, 56, 512)   0           leaky_re_lu_6[0][0]              
                                                                   leaky_re_lu_14[0][0]             
____________________________________________________________________________________________________
conv2d_15 (Conv2D)               (None, 56, 56, 256)   1179904     concatenate_2[0][0]              
____________________________________________________________________________________________________
leaky_re_lu_15 (LeakyReLU)       (None, 56, 56, 256)   0           conv2d_15[0][0]                  
____________________________________________________________________________________________________
conv2d_16 (Conv2D)               (None, 56, 56, 256)   590080      leaky_re_lu_15[0][0]             
____________________________________________________________________________________________________
leaky_re_lu_16 (LeakyReLU)       (None, 56, 56, 256)   0           conv2d_16[0][0]                  
____________________________________________________________________________________________________
up_sampling2d_3 (UpSampling2D)   (None, 112, 112, 256) 0           leaky_re_lu_16[0][0]             
____________________________________________________________________________________________________
conv2d_17 (Conv2D)               (None, 112, 112, 128) 295040      up_sampling2d_3[0][0]            
____________________________________________________________________________________________________
leaky_re_lu_17 (LeakyReLU)       (None, 112, 112, 128) 0           conv2d_17[0][0]                  
____________________________________________________________________________________________________
concatenate_3 (Concatenate)      (None, 112, 112, 256) 0           leaky_re_lu_4[0][0]              
                                                                   leaky_re_lu_17[0][0]             
____________________________________________________________________________________________________
conv2d_18 (Conv2D)               (None, 112, 112, 128) 295040      concatenate_3[0][0]              
____________________________________________________________________________________________________
leaky_re_lu_18 (LeakyReLU)       (None, 112, 112, 128) 0           conv2d_18[0][0]                  
____________________________________________________________________________________________________
conv2d_19 (Conv2D)               (None, 112, 112, 128) 147584      leaky_re_lu_18[0][0]             
____________________________________________________________________________________________________
leaky_re_lu_19 (LeakyReLU)       (None, 112, 112, 128) 0           conv2d_19[0][0]                  
____________________________________________________________________________________________________
up_sampling2d_4 (UpSampling2D)   (None, 224, 224, 128) 0           leaky_re_lu_19[0][0]             
____________________________________________________________________________________________________
conv2d_20 (Conv2D)               (None, 224, 224, 64)  73792       up_sampling2d_4[0][0]            
____________________________________________________________________________________________________
leaky_re_lu_20 (LeakyReLU)       (None, 224, 224, 64)  0           conv2d_20[0][0]                  
____________________________________________________________________________________________________
concatenate_4 (Concatenate)      (None, 224, 224, 128) 0           leaky_re_lu_2[0][0]              
                                                                   leaky_re_lu_20[0][0]             
____________________________________________________________________________________________________
conv2d_21 (Conv2D)               (None, 224, 224, 64)  73792       concatenate_4[0][0]              
____________________________________________________________________________________________________
leaky_re_lu_21 (LeakyReLU)       (None, 224, 224, 64)  0           conv2d_21[0][0]                  
____________________________________________________________________________________________________
conv2d_22 (Conv2D)               (None, 224, 224, 64)  36928       leaky_re_lu_21[0][0]             
____________________________________________________________________________________________________
leaky_re_lu_22 (LeakyReLU)       (None, 224, 224, 64)  0           conv2d_22[0][0]                  
____________________________________________________________________________________________________
conv2d_23 (Conv2D)               (None, 224, 224, 12)  780         leaky_re_lu_22[0][0]             
====================================================================================================
Total params: 31,892,620
Trainable params: 31,892,620
Non-trainable params: 0
____________________________________________________________________________________________________
____________________________________________________________________________________________________
Layer (type)                     Output Shape          Param #     Connected to                     
====================================================================================================
input_1 (InputLayer)             (None, 224, 224, 3)   0                                            
____________________________________________________________________________________________________
conv2d_1 (Conv2D)                (None, 224, 224, 64)  1792        input_1[0][0]                    
____________________________________________________________________________________________________
leaky_re_lu_1 (LeakyReLU)        (None, 224, 224, 64)  0           conv2d_1[0][0]                   
____________________________________________________________________________________________________
conv2d_2 (Conv2D)                (None, 224, 224, 64)  36928       leaky_re_lu_1[0][0]              
____________________________________________________________________________________________________
leaky_re_lu_2 (LeakyReLU)        (None, 224, 224, 64)  0           conv2d_2[0][0]                   
____________________________________________________________________________________________________
max_pooling2d_1 (MaxPooling2D)   (None, 112, 112, 64)  0           leaky_re_lu_2[0][0]              
____________________________________________________________________________________________________
conv2d_3 (Conv2D)                (None, 112, 112, 128) 73856       max_pooling2d_1[0][0]            
____________________________________________________________________________________________________
leaky_re_lu_3 (LeakyReLU)        (None, 112, 112, 128) 0           conv2d_3[0][0]                   
____________________________________________________________________________________________________
conv2d_4 (Conv2D)                (None, 112, 112, 128) 147584      leaky_re_lu_3[0][0]              
____________________________________________________________________________________________________
leaky_re_lu_4 (LeakyReLU)        (None, 112, 112, 128) 0           conv2d_4[0][0]                   
____________________________________________________________________________________________________
max_pooling2d_2 (MaxPooling2D)   (None, 56, 56, 128)   0           leaky_re_lu_4[0][0]              
____________________________________________________________________________________________________
conv2d_5 (Conv2D)                (None, 56, 56, 256)   295168      max_pooling2d_2[0][0]            
____________________________________________________________________________________________________
leaky_re_lu_5 (LeakyReLU)        (None, 56, 56, 256)   0           conv2d_5[0][0]                   
____________________________________________________________________________________________________
conv2d_6 (Conv2D)                (None, 56, 56, 256)   590080      leaky_re_lu_5[0][0]              
____________________________________________________________________________________________________
leaky_re_lu_6 (LeakyReLU)        (None, 56, 56, 256)   0           conv2d_6[0][0]                   
____________________________________________________________________________________________________
max_pooling2d_3 (MaxPooling2D)   (None, 28, 28, 256)   0           leaky_re_lu_6[0][0]              
____________________________________________________________________________________________________
conv2d_7 (Conv2D)                (None, 28, 28, 512)   1180160     max_pooling2d_3[0][0]            
____________________________________________________________________________________________________
leaky_re_lu_7 (LeakyReLU)        (None, 28, 28, 512)   0           conv2d_7[0][0]                   
____________________________________________________________________________________________________
conv2d_8 (Conv2D)                (None, 28, 28, 512)   2359808     leaky_re_lu_7[0][0]              
____________________________________________________________________________________________________
leaky_re_lu_8 (LeakyReLU)        (None, 28, 28, 512)   0           conv2d_8[0][0]                   
____________________________________________________________________________________________________
dropout_1 (Dropout)              (None, 28, 28, 512)   0           leaky_re_lu_8[0][0]              
____________________________________________________________________________________________________
max_pooling2d_4 (MaxPooling2D)   (None, 14, 14, 512)   0           dropout_1[0][0]                  
____________________________________________________________________________________________________
conv2d_9 (Conv2D)                (None, 14, 14, 1024)  4719616     max_pooling2d_4[0][0]            
____________________________________________________________________________________________________
leaky_re_lu_9 (LeakyReLU)        (None, 14, 14, 1024)  0           conv2d_9[0][0]                   
____________________________________________________________________________________________________
conv2d_10 (Conv2D)               (None, 14, 14, 1024)  9438208     leaky_re_lu_9[0][0]              
____________________________________________________________________________________________________
leaky_re_lu_10 (LeakyReLU)       (None, 14, 14, 1024)  0           conv2d_10[0][0]                  
____________________________________________________________________________________________________
dropout_2 (Dropout)              (None, 14, 14, 1024)  0           leaky_re_lu_10[0][0]             
____________________________________________________________________________________________________
up_sampling2d_1 (UpSampling2D)   (None, 28, 28, 1024)  0           dropout_2[0][0]                  
____________________________________________________________________________________________________
conv2d_11 (Conv2D)               (None, 28, 28, 512)   2097664     up_sampling2d_1[0][0]            
____________________________________________________________________________________________________
leaky_re_lu_11 (LeakyReLU)       (None, 28, 28, 512)   0           conv2d_11[0][0]                  
____________________________________________________________________________________________________
concatenate_1 (Concatenate)      (None, 28, 28, 1024)  0           dropout_1[0][0]                  
                                                                   leaky_re_lu_11[0][0]             
____________________________________________________________________________________________________
conv2d_12 (Conv2D)               (None, 28, 28, 512)   4719104     concatenate_1[0][0]              
____________________________________________________________________________________________________
leaky_re_lu_12 (LeakyReLU)       (None, 28, 28, 512)   0           conv2d_12[0][0]                  
____________________________________________________________________________________________________
conv2d_13 (Conv2D)               (None, 28, 28, 512)   2359808     leaky_re_lu_12[0][0]             
____________________________________________________________________________________________________
leaky_re_lu_13 (LeakyReLU)       (None, 28, 28, 512)   0           conv2d_13[0][0]                  
____________________________________________________________________________________________________
up_sampling2d_2 (UpSampling2D)   (None, 56, 56, 512)   0           leaky_re_lu_13[0][0]             
____________________________________________________________________________________________________
conv2d_14 (Conv2D)               (None, 56, 56, 256)   1179904     up_sampling2d_2[0][0]            
____________________________________________________________________________________________________
leaky_re_lu_14 (LeakyReLU)       (None, 56, 56, 256)   0           conv2d_14[0][0]                  
____________________________________________________________________________________________________
concatenate_2 (Concatenate)      (None, 56, 56, 512)   0           leaky_re_lu_6[0][0]              
                                                                   leaky_re_lu_14[0][0]             
____________________________________________________________________________________________________
conv2d_15 (Conv2D)               (None, 56, 56, 256)   1179904     concatenate_2[0][0]              
____________________________________________________________________________________________________
leaky_re_lu_15 (LeakyReLU)       (None, 56, 56, 256)   0           conv2d_15[0][0]                  
____________________________________________________________________________________________________
conv2d_16 (Conv2D)               (None, 56, 56, 256)   590080      leaky_re_lu_15[0][0]             
____________________________________________________________________________________________________
leaky_re_lu_16 (LeakyReLU)       (None, 56, 56, 256)   0           conv2d_16[0][0]                  
____________________________________________________________________________________________________
up_sampling2d_3 (UpSampling2D)   (None, 112, 112, 256) 0           leaky_re_lu_16[0][0]             
____________________________________________________________________________________________________
conv2d_17 (Conv2D)               (None, 112, 112, 128) 295040      up_sampling2d_3[0][0]            
____________________________________________________________________________________________________
leaky_re_lu_17 (LeakyReLU)       (None, 112, 112, 128) 0           conv2d_17[0][0]                  
____________________________________________________________________________________________________
concatenate_3 (Concatenate)      (None, 112, 112, 256) 0           leaky_re_lu_4[0][0]              
                                                                   leaky_re_lu_17[0][0]             
____________________________________________________________________________________________________
conv2d_18 (Conv2D)               (None, 112, 112, 128) 295040      concatenate_3[0][0]              
____________________________________________________________________________________________________
leaky_re_lu_18 (LeakyReLU)       (None, 112, 112, 128) 0           conv2d_18[0][0]                  
____________________________________________________________________________________________________
conv2d_19 (Conv2D)               (None, 112, 112, 128) 147584      leaky_re_lu_18[0][0]             
____________________________________________________________________________________________________
leaky_re_lu_19 (LeakyReLU)       (None, 112, 112, 128) 0           conv2d_19[0][0]                  
____________________________________________________________________________________________________
up_sampling2d_4 (UpSampling2D)   (None, 224, 224, 128) 0           leaky_re_lu_19[0][0]             
____________________________________________________________________________________________________
conv2d_20 (Conv2D)               (None, 224, 224, 64)  73792       up_sampling2d_4[0][0]            
____________________________________________________________________________________________________
leaky_re_lu_20 (LeakyReLU)       (None, 224, 224, 64)  0           conv2d_20[0][0]                  
____________________________________________________________________________________________________
concatenate_4 (Concatenate)      (None, 224, 224, 128) 0           leaky_re_lu_2[0][0]              
                                                                   leaky_re_lu_20[0][0]             
____________________________________________________________________________________________________
conv2d_21 (Conv2D)               (None, 224, 224, 64)  73792       concatenate_4[0][0]              
____________________________________________________________________________________________________
leaky_re_lu_21 (LeakyReLU)       (None, 224, 224, 64)  0           conv2d_21[0][0]                  
____________________________________________________________________________________________________
conv2d_22 (Conv2D)               (None, 224, 224, 64)  36928       leaky_re_lu_21[0][0]             
____________________________________________________________________________________________________
leaky_re_lu_22 (LeakyReLU)       (None, 224, 224, 64)  0           conv2d_22[0][0]                  
____________________________________________________________________________________________________
conv2d_23 (Conv2D)               (None, 224, 224, 12)  780         leaky_re_lu_22[0][0]             
====================================================================================================
Total params: 31,892,620
Trainable params: 31,892,620
Non-trainable params: 0
____________________________________________________________________________________________________
Epoch 1/500
 1/19 [>.............................] - ETA: 86s - loss: 2.5455
…
